Training a Classifier using Pytorch/cifar_net.pth (torch_old, 249562 bytes, 10 tensors)

conv1.weight f4 [6, 3, 5, 5]
000000 24 23 27 be 3f 65 dc be d5 ee e0 be d8 0e 76 be
       -0.16321999 -0.43045995 -0.43932214 -0.240291
000010 77 8f 3e be 3a 05 89 3d 8f 6c ae 3d d9 53 0b be
       -0.18609415 0.0669045 0.085168 -0.13606204
000020 66 58 91 bd 46 3a ad bd 11 a9 73 3e e4 af 81 3e
       -0.07096939 -0.084583804 0.23794962 0.25329506
000030 e3 9b bf 3e 1c ab 19 3e c2 77 5c 3e 58 83 19 3e
       0.3742362 0.1500668 0.21530059 0.1499151
000040 15 9e f2 3b 92 eb c3 bb dd 71 ac 3d 5f 5e 26 3e
       0.0074040988 -0.00597901 0.08420155 0.16246937
000050 69 fb 2f 3e 94 84 9a 3b 1e f0 3e 3d aa dd a5 3c
       0.17185749 0.0047155116 0.046615712 0.0202473
000060 b2 e3 0c 3d 42 b3 88 be 40 90 b4 be b6 6d 5e be
       0.034396835 -0.26699263 -0.35266304 -0.21721539
000070 8d 32 53 be a0 90 35 be 10 c0 18 bd 48 68 a9 3d
       -0.20624752 -0.17730951 -0.03729254 0.08271843
000080 c7 21 17 be 83 1a f0 3a 55 1a 2b be 25 e3 9c 3e
       -0.14758979 0.0018318448 -0.16709264 0.30642048
000090 e7 ee 88 3e ea d7 a8 3e 20 f6 7c 3d 62 30 6a 3d
       0.26744768 0.3297723 0.06175816 0.057175048
0000a0 f1 f6 36 3d 7e af 9b bd c8 33 a1 3c 69 b2 d8 3d
       0.044669095 -0.07601832 0.019678012 0.10580904
0000b0 bf 9b 5f 3d bc f8 d9 bd 34 d7 8b bd 93 a5 32 bc
       0.05459189 -0.106431454 -0.06828156 -0.010903734
0000c0 d7 23 e3 bb a8 b8 0a bd c1 84 d5 ba a7 73 09 be
       -0.0069317627 -0.03386751 -0.0016290174 -0.13423024
0000d0 f6 01 4d be bb 49 1c be fd 28 7a 3d a2 0b ed 3d
       -0.2002028 -0.15262501 0.061074246 0.115744844
0000e0 c5 c2 04 3e 8d d4 1b 3e 99 62 87 3c c0 78 ec bd
       0.12964924 0.152178 0.016526507 -0.11546469
0000f0 a5 4d 8f 3e 66 44 8b 3e 1e ba b1 3e 27 fe 02 3e
       0.27988926 0.2720062 0.3471231 0.12792264
000100 2d c7 6a 3d 1e af 97 bd 04 c9 4c bc 2d ed 93 3d
       0.057318855 -0.07406448 -0.012499098 0.07222972
000110 c8 9b aa 3d 95 2a 72 bc 39 e3 ee bd 3b c9 98 3c
       0.08330494 -0.01478066 -0.11664433 0.018650642
000120 65 d8 b2 bd 8b 9d 39 bd 9a ca 0e 3d 9f ec 3b bd
       -0.0873268 -0.04531626 0.034861185 -0.045879956
000130 0f 99 c0 bd c3 c9 79 3d d7 00 67 3d 21 52 33 3d
       -0.094041936 0.06098343 0.056397285 0.043779496
000140 b4 ad 63 bd fe 74 49 3c a2 6d bf 3d 1c c4 17 3d
       -0.055585578 0.0122959595 0.09347083 0.03705226
000150 97 1a 0c bd 5d 28 03 be 57 67 f9 3d 78 27 b5 3c
       -0.034205046 -0.12808366 0.12177914 0.022113547
000160 eb 31 f0 3d 55 7c 4f bb 3d 82 95 3b 8e d8 fb 3c
       0.11728271 -0.00316598 0.0045626448 0.03074291
000170 bf 6b cf 3d ef e4 00 3d 55 5c 57 3d dc b1 42 3e
       0.10127973 0.031468328 0.05257829 0.1901316
000180 cb 94 81 3e 60 24 f0 3d 9f b6 b2 3d 35 bb 53 3e
       0.25308833 0.11725688 0.087262385 0.20676883
000190 42 91 28 be c8 6a b8 bd 43 38 28 bd e1 c2 2c 3d
       -0.16461661 -0.09004742 -0.04106928 0.04217804
0001a0 fe 43 86 bd d3 f2 c6 bd ad db 9e bd 86 9b a0 3d
       -0.06555937 -0.09714284 -0.077567436 0.07842164
0001b0 b5 49 16 3c 4d a6 3e 3d ba fe 35 be 36 9c 12 3b
       0.009172847 0.046545316 -0.17772952 0.002237094
0001c0 78 1f da bd 97 f5 15 3c 71 0e 9d 3c 80 3d 31 be
       -0.106505334 0.009152791 0.019171925 -0.17308617
0001d0 9c 22 12 be ac 6c bb bc 4a 0b e2 bd 88 83 35 be
       -0.14271015 -0.022878967 -0.110373095 -0.17725956
0001e0 de 8a f6 bd 25 cd 1f be 20 f9 ab bc d5 17 31 bd
       -0.120382056 -0.156056 -0.020992815 -0.04323562
0001f0 74 ac 81 be 3a b5 6b 3d b4 55 77 3e e1 5d 84 3e
       -0.25326884 0.057545878 0.24153787 0.25852874
000200 1f a5 b3 3e bc 3a 79 3e 79 24 01 be ec 7d 72 3d
       0.35086915 0.24338812 -0.1261157 0.05920212
000210 5c 61 58 3e bd 19 84 3e e9 63 6c 3e 6f 60 d3 bb
       0.2113089 0.25800887 0.23084988 -0.0064507048
000220 b9 fc 7b bc 9a 43 87 3e c5 c0 1f 3e f1 6a 9a 3c
       -0.015380078 0.26418763 0.1560088 0.018849822
000230 49 9c 46 3d 3f 73 e9 3d e3 6e 30 3e f4 8e 74 3d
       0.04848889 0.113989346 0.172298 0.059706643
000240 3d 42 45 3d a3 77 62 bd a0 7b e6 3c 96 1a 89 bd
       0.048158873 -0.055289876 0.02813512 -0.06694524
000250 f9 52 b9 3b 86 f0 0f be b7 d5 19 3c 79 67 5e bc
       0.005655643 -0.14056596 0.0093893325 -0.0135744745
000260 35 b3 7c be 51 fe 82 bd a5 0f 6b 3e 38 9b 05 3c
       -0.24677737 -0.06396163 0.22955187 0.008154683
000270 ec ad c2 3e 47 58 e1 be ef 23 d1 be f5 d6 84 3e
       0.38023317 -0.44012663 -0.40847728 0.2594525
000280 dd 27 3a 3e e5 c6 f1 3e 36 fc 91 be 59 2d de be
       0.18179269 0.47222057 -0.28512734 -0.43393973
000290 43 f6 5f 3e 82 25 d0 3d 73 00 63 3e b9 e4 a6 3b
       0.21871285 0.10163404 0.2216814 0.005093184
0002a0 29 16 ad be 04 26 3f bc 32 3f 79 bd 56 20 fa bd
       -0.3380597 -0.0116667785 -0.060851283 -0.12213199
0002b0 fe 5c 4c 3d 43 58 5b 3d 2f dd 36 3d bc ab ad 3c
       0.04989337 0.05355097 0.04464453 0.021200053
0002c0 a5 b8 2a 3d ac a5 5e be 08 ae 31 be 39 fa 76 3e
       0.041679997 -0.21742886 -0.17351544 0.2411889
0002d0 16 1e 96 3e 75 8f ee 3e 9b c9 ef be 17 49 0a bf
       0.2931983 0.46593824 -0.468335 -0.54017776
0002e0 46 fd d4 3e e0 9d 40 3e 3b 4e 00 3f 2e ab a2 be
       0.41599482 0.18810225 0.5011937 -0.31771225
0002f0 48 3f 04 bf 21 d3 27 3e f1 4c 5b bc 06 e7 b3 3e
       -0.5165906 0.16389133 -0.0133850435 0.35137194
000300 95 85 16 bc eb db b8 be de c8 09 bd 7c 6b ed bc
       -0.009187122 -0.36105284 -0.033638828 -0.028981917
000310 a3 98 8f bc bf 3a 0c 3d fa 25 8d 3c 01 5f f9 3c
       -0.017528838 0.034235712 0.017230023 0.03044081
000320 60 21 40 bd 03 36 f9 3d 1e c1 90 be f2 99 86 be
       -0.04690683 0.12168505 -0.28272337 -0.26289326
000330 18 33 37 3e f9 26 11 3e 2a 02 e7 3e e8 7b f0 be
       0.17890584 0.14175023 0.4511884 -0.46969533
000340 13 11 e0 be dd ee 70 3e c7 d6 46 3e 85 ab 08 3f
       -0.43763027 0.23528619 0.19417869 0.5338672
000350 14 ec 8a be 61 81 fc be a9 45 36 3e 54 c1 55 3d
       -0.27133238 -0.49317458 0.1780001 0.052186325
000360 ec 69 9b 3e 62 97 11 3d 28 df d2 bd 60 98 55 3b
       0.3035425 0.03554476 -0.1029647 0.0032592043
000370 4d 8a 46 bc 46 36 1f 3e 43 90 87 3d 14 a1 24 bd
       -0.012117934 0.15548047 0.066193126 -0.04019268
000380 4e 94 87 bd ea 2e ea 3e fc 54 f3 3e eb 86 e3 3e
       -0.06620084 0.45738918 0.47525775 0.44438872
000390 9d 05 88 3e 38 be 69 3e 59 6c c4 3e ee 13 99 3e
       0.26566783 0.22826469 0.38363913 0.29898018
0003a0 42 d3 18 3e b7 2b 37 3d e1 1e 29 3e 31 74 37 3e
       0.14924338 0.044719424 0.16515686 0.17915417
0003b0 26 bd 6b 3d b3 62 a9 bd 44 a5 1c bd 71 e7 c7 3d
       0.057553433 -0.082707785 -0.038243547 0.09760941
0003c0 ae 83 16 be 3c e0 91 be ff 2c 7f be e0 eb a1 3c
       -0.1469867 -0.2849139 -0.24919508 0.019765794
0003d0 70 3e c9 3d 95 92 a9 be 58 43 8c be 88 c9 b4 bd
       0.09826362 -0.33119646 -0.2739513 -0.088275015
0003e0 71 4d 64 bd 34 8b 10 bd d1 5c 89 be a5 48 84 be
       -0.055737916 -0.035289004 -0.26828626 -0.25836673
0003f0 fb ee 6f be e8 e7 cb be f8 e2 b6 be 09 5a 84 bd
       -0.23431008 -0.39825368 -0.35720038 -0.06462485

conv1.bias f4 [6]
000000 d7 6c 9d be ee 1b 65 3e 44 79 1e be 25 94 86 be
       -0.307471 0.22373936 -0.15475947 -0.262849
000010 1a ad b3 3e 2e 74 b8 be
       0.35093004 -0.36026138

conv2.weight f4 [16, 6, 5, 5]
000000 5f 69 03 be 4d ac 0f bd e1 86 ff bd ad f8 1f bc
       -0.12833165 -0.03507643 -0.12476898 -0.009763879
000010 76 ec 27 be 8c ee f9 bd 14 76 b0 bd 78 98 06 be
       -0.16398796 -0.12203702 -0.086162716 -0.131441
000020 1a ca f8 bd 9f a9 ba 3c 27 8b ad bd cd 88 94 bd
       -0.12147923 0.02278596 -0.08473807 -0.07252655
000030 88 7e 1c bd 65 5b b2 bd da 9f 28 bc ca 7e a2 3a
       -0.038206607 -0.087088384 -0.010292018 0.0012397405
000040 8c 3b bf bd fd 07 7f bd 27 04 e7 3c 00 03 33 bb
       -0.093375295 -0.062263478 0.028200222 -0.002731502
000050 75 12 00 bd f3 43 94 3d 4e a8 19 bd 73 9f 75 bd
       -0.031267602 0.07239523 -0.037514023 -0.059966516
000060 ff 63 8b bd 5c 95 d8 bd ab 37 80 bd 26 7c 11 3e
       -0.06806182 -0.10575363 -0.06260618 0.14207515
000070 44 2b 31 3e 87 f7 6c 3e ff a5 04 be 6e c0 b3 ba
       0.17301661 0.23141299 -0.12953947 -0.0013713965
000080 4e a6 7a bd df 85 5b 3c 94 2f 56 3e ab c6 ad bd
       -0.061193757 0.013398617 0.20916587 -0.084851585
000090 1a 92 0a bc 5e 2d 8d bd 6e b6 86 3d 59 d3 8f 3e
       -0.008457685 -0.06893419 0.065777645 0.28090933
0000a0 f0 5d 07 be 78 0c 04 be d2 26 17 3d 86 01 0e 3e
       -0.13219428 -0.12895381 0.036902256 0.13867769
0000b0 9a ea 80 3e 64 b6 84 bd 7c fe c7 3c 61 14 17 3e
       0.25178987 -0.06480101 0.02441334 0.14753868
0000c0 f5 fc 6b 3e ef 8d f3 3d cc 0c 6f be e0 a0 46 be
       0.23045714 0.11892306 -0.23344725 -0.19397306
0000d0 46 89 22 be 93 d3 b1 bc b3 ae 64 bd e5 b0 80 be
       -0.15872678 -0.021707332 -0.05583067 -0.2513496
0000e0 df 86 7f be 08 61 c5 bd bd 26 3c be c7 b3 2b be
       -0.24953793 -0.09637648 -0.18374152 -0.16767798
0000f0 1a a8 79 be 45 a7 12 be 81 c2 5f be 11 2c 1f be
       -0.24380532 -0.14321621 -0.21851541 -0.15544154
000100 0d e2 36 be 9c f0 29 be d7 ea 63 be 1c 3f 31 be
       -0.17859669 -0.16595691 -0.22257553 -0.1730923
000110 ce 25 65 be 20 d4 b6 bd ba 26 37 be 7d b0 58 be
       -0.22377703 -0.089271784 -0.17885867 -0.21161075
000120 5f b2 d4 bd 91 c2 4f bd f8 cb 03 3e db 15 68 bd
       -0.10385584 -0.050722662 0.12870777 -0.056661468
000130 15 aa 1f 3c 8a 32 7e bd 53 ae e2 3c a9 52 dc 3d
       0.009745141 -0.062059917 0.027671015 0.10757954
000140 5e d7 f2 bd 7c 28 ce 3c 64 ef 4a bc 14 c5 34 3e
       -0.11857484 0.025165789 -0.012386177 0.17653304
000150 90 14 83 3d 18 12 1d bc 5a fe f2 3b 0f 87 4a 3d
       0.06400406 -0.009586833 0.007415575 0.04944521
000160 35 ea a4 3d 02 4c 4d bd 40 ca 6d bc 6b f5 81 3d
       0.08052484 -0.050121315 -0.014513552 0.06345638
000170 ac ea 2d bd 5d 36 18 be 96 f3 9d 3c 19 08 96 bd
       -0.04246013 -0.14864488 0.01928119 -0.07325763
000180 a0 c3 95 bd 38 8d 89 bd 5f 3f 43 bd 03 29 33 bd
       -0.07312703 -0.067163885 -0.047667857 -0.043740284
000190 70 db 4e bd aa ce 85 bc 0d 50 eb bd 22 e0 b8 bc
       -0.05050224 -0.016333897 -0.11489878 -0.022567812
0001a0 0c f5 cf bc 18 b2 92 3b 64 e7 34 bd f6 d4 b8 bd
       -0.025385402 0.004476797 -0.044165984 -0.09024994
0001b0 6c da e1 bc 36 a2 46 3c d5 6d e4 3d 9c 57 23 3d
       -0.027569972 0.012123635 0.11153761 0.039878473
0001c0 a1 15 0a bd 53 05 bb 3c 50 2a 77 3d 09 25 ef 3d
       -0.033712033 0.022829687 0.060343087 0.11676986
0001d0 5e a4 4e bb a5 1c a4 3c 69 db 90 3d 03 c5 4f 3d
       -0.0031531076 0.02003319 0.07073099 0.050724994
0001e0 ea 7c 29 3e 21 19 82 3d 2b 36 a2 3d a7 af ba 3d
       0.16551557 0.06352449 0.07920488 0.09115534
0001f0 b9 0c ae 3d 97 82 49 bc ea 9e b7 3d e1 bb 59 3d
       0.084985204 -0.012299201 0.08965857 0.05315769
000200 27 0b 05 3e ae 40 8e bd f2 05 84 3c 85 ee 74 3d
       0.12992536 -0.069459304 0.016116116 0.059797782
000210 cc 7b 49 bc 94 a9 92 3d 13 9c c4 3b 84 41 0b bd
       -0.012297582 0.07161251 0.006000051 -0.033998027
000220 f7 7c 8b bc 63 39 be bd d2 7d 06 bd a7 1c 08 bd
       -0.017027361 -0.092882894 -0.032834835 -0.03323045
000230 63 07 7a bd 02 f1 03 be 9e 46 df bd 44 d9 18 be
       -0.0610422 -0.12884906 -0.10902141 -0.1492663
000240 de d6 81 3a 57 03 e3 bc f9 34 07 be 74 6f 1b bd
       0.0009905954 -0.027711553 -0.13203801 -0.037948087
000250 78 b8 d1 3a 8b 6a 44 3d 9d 79 07 3c f2 dd dd bd
       0.001600041 0.04795317 0.008268741 -0.10833348
000260 8e 5d ae bd 71 97 ce 3d 72 5f 29 3e 81 80 cf bd
       -0.08513938 0.10087479 0.16540316 -0.10131932
000270 a0 29 05 be c7 56 a9 bd b3 cf 5f 3b c8 ee 14 3e
       -0.1300416 -0.082685046 0.0034150898 0.14544213
000280 56 97 2c 3c 5d b5 ec bd f0 d9 06 be f1 eb c7 bd
       0.010534128 -0.1155803 -0.13169074 -0.09761799
000290 e8 54 33 be d3 f4 35 be 68 56 dd bd 2f 21 33 be
       -0.17512858 -0.17769174 -0.10807496 -0.17493127
0002a0 6d 15 9c bd 53 14 91 bd 4b f8 05 3c e8 f6 04 be
       -0.07621274 -0.07083955 0.008176873 -0.12984812
0002b0 87 22 1b bd 40 22 65 3d 2a 91 dd 3d 73 aa 18 be
       -0.037874725 0.055940866 0.108187035 -0.14908771
0002c0 62 43 48 be 2c 32 50 bd 1c 7b 54 3d 04 79 1f 3e
       -0.19556955 -0.050829098 0.05187522 0.15573508
0002d0 f7 60 8f be 65 39 ae bd ee c3 a3 bb 67 35 5c 3e
       -0.28003666 -0.08507041 -0.004997722 0.21504746
0002e0 2c b9 7b 3e f5 b0 92 be 5e ae 0d be bf ed 28 bb
       0.24582356 -0.28650633 -0.13836047 -0.0025776473
0002f0 c6 43 02 3e ea ef fa 3d a9 da 2c be bf b4 9e bc
       0.12721166 0.12252791 -0.16880287 -0.019373296
000300 71 41 12 3d 02 ea df bc b0 cf bc 3d f3 20 fd bd
       0.03570694 -0.027333263 0.09219301 -0.123598
000310 f0 ee 38 3c d6 8e b4 3c b5 33 9a bd d3 7c a0 3d
       0.011287436 0.022040766 -0.075293936 0.07836308
000320 e5 6c 3f 3e c2 3e cb bc 3a db 17 be e8 9c 6b be
       0.18693884 -0.024810199 -0.14829722 -0.23009074
000330 1f 1d f7 bd 4c e6 c3 3d 6b f4 7e bb 9a 6d 30 be
       -0.12066101 0.0956541 -0.0038903009 -0.1722931
000340 6b c1 4e be 3d 5a fe bd 93 78 09 3e 79 a6 a3 bc
       -0.2019097 -0.12419555 0.13424902 -0.019976841
000350 57 8f f9 bd 14 a0 06 be f2 86 57 be 84 bd 7d 3d
       -0.12185543 -0.13147002 -0.21047571 0.061948314
000360 58 bb 70 bd 1b 92 60 bc ab d0 2c bd 06 1b 3a bd
       -0.058772415 -0.013706709 -0.04219119 -0.045435928
000370 7d c4 1a 3d a5 24 8f bd 1b 56 56 3d b9 cc 27 3c
       0.037785042 -0.06989411 0.05232821 0.010241681
000380 13 d9 48 3d bb 56 b8 3d 2b c3 7a 3e c3 87 1b 3e
       0.049035143 0.090009175 0.24488513 0.15188508
000390 d4 af da bd 7d 90 c6 be 0d fa 44 3e d3 49 5d 3e
       -0.10678068 -0.3878211 0.19236012 0.21610193
0003a0 ed 6f 09 3d 0e 30 36 be 09 8a 9d be 9e fe 78 3e
       0.033554006 -0.17791769 -0.30769375 0.24315879
0003b0 70 f5 bc 3d 0e c3 4b bc 35 29 ec bd e1 58 3d be
       0.09226501 -0.012436641 -0.11531297 -0.18490936
0003c0 ca 7d 25 3e 61 72 d0 3d 70 87 ae bd 98 e7 76 bd
       0.16161266 0.10178066 -0.085219264 -0.06027946
0003d0 35 17 00 be 3f 16 22 3e 7c 18 0c bb b4 c2 48 bd
       -0.12508853 0.15828799 -0.0021376899 -0.04901381
0003e0 cf 9a a6 3c dc 2b 14 be 4e f2 bf bd 39 f5 04 be
       0.02033749 -0.14469856 -0.09372388 -0.1298417
0003f0 d8 35 28 be 8b 50 8a 3c e7 94 4b 3e ac 93 08 be
       -0.1642679 0.016884109 0.1988102 -0.13337582

conv2.bias f4 [16]
000000 9b 31 3b 3f 91 6e 1f 3e f6 ae 21 be 01 d3 c9 be
       0.73122567 0.15569521 -0.15789399 -0.39418796
000010 78 5d 68 3f 36 de da bd 56 fb 6b 3e bc 43 e7 3e
       0.9076762 -0.106869146 0.23045096 0.45168865
000020 e9 73 1a bf 7c 71 a9 3e 4e 81 6e bd 8d bb 6f 3e
       -0.60333115 0.33094394 -0.058228783 0.23411389
000030 a5 1c ef be 18 ab 06 bf a4 3a b3 be 9e ff d5 be
       -0.46701542 -0.5260482 -0.35005677 -0.41796583

fc1.weight f4 [120, 400]
000000 aa fe 16 bd d3 4d a2 bb 75 01 8e 3d 4b 9b 6d 3d
       -0.03686396 -0.004953125 0.06933872 0.058009427
000010 17 55 15 3e b9 f5 16 3c b5 00 c4 bc dd 59 5d 3c
       0.1458324 0.009213858 -0.023926118 0.013510195
000020 95 1c 2e 3c 17 c8 8b 3d 1c e7 54 bd 12 65 d1 bc
       0.010626932 0.068252735 -0.051978216 -0.02556089
000030 20 4e d4 bc f1 f5 64 bc 53 cf 6e 3d 13 26 d5 bc
       -0.02591616 -0.013974653 0.05830319 -0.026019132
000040 ca b9 d7 bb cb a6 e8 3c 3e fd 42 3c 66 52 91 bc
       -0.006583427 0.028399846 0.011901198 -0.017739486
000050 cc 73 13 bd 96 c7 c4 bc 5c a5 0c bd cf 55 6f bd
       -0.035999104 -0.024020951 -0.034337386 -0.058431443
000060 60 63 b1 bc 97 2e 06 3e d8 78 a3 3d 9e 97 47 3c
       -0.021653831 0.1310371 0.079820335 0.012182144
000070 c2 11 bc 3d 03 50 aa 3d ec 34 f2 3c ac 65 0d 3d
       0.091830745 0.08316042 0.02956625 0.03452079
000080 bd 90 d4 3d d6 90 93 3d e0 2b cc bc d3 cf 59 bd
       0.10379169 0.0720536 -0.024923265 -0.053176712
000090 26 a8 dc 3d b4 cd 09 3c a3 12 bb 3d 3a f7 6a 3b
       0.10774259 0.00841086 0.09134414 0.0035852925
0000a0 fd 1f 4a bc cd bf 56 3c 25 90 d5 3c 83 0f 09 3d
       -0.012336728 0.013107252 0.02606971 0.03346206
0000b0 89 e1 22 3d bc 5c 5a 3d f6 d3 c7 3c cd 42 14 bd
       0.03976587 0.053311095 0.024393063 -0.03619652
0000c0 6c 47 04 bc 2d 62 98 3d 43 c0 fb 3c c9 0c ed 3c
       -0.008073669 0.074406005 0.030731326 0.02893676
0000d0 6c 6d 3e 3c e3 70 b4 bc aa 7a 87 3d 96 b9 ca bc
       0.011622768 -0.022026485 0.06615193 -0.024746697
0000e0 35 3e 6e 3d a0 4e 94 bc 31 4c af bd 14 2c 47 bd
       0.058164794 -0.018103898 -0.08559454 -0.04862602
0000f0 e9 2c 55 bc 79 e4 7c bd a4 9f 86 3c b2 72 3f ba
       -0.013011196 -0.061741326 0.016433544 -0.0007303163
000100 d9 c8 8f 3c 9a 53 76 3d 86 7b 56 bd 08 74 81 bc
       0.017551826 0.060138322 -0.052363895 -0.015802398
000110 2f a3 74 bd fd 59 9c 3d 58 fd 02 bc 3b 6c fa bd
       -0.059725937 0.076343514 -0.007994972 -0.122276746
000120 bb b1 9e bd e3 73 72 bd d5 5d 9b 3d ad cc 8b 3d
       -0.07748743 -0.05919255 0.075862564 0.06826148
000130 4f 77 f5 3c e2 4e 87 3d 5c 2f 8a 3c 44 ae 27 bc
       0.029964117 0.066068426 0.016868286 -0.010234419
000140 3a 0f 74 bc 9b 1b 5a bd 25 29 e1 bd e0 cd db bc
       -0.014896208 -0.053248983 -0.10994176 -0.026831567
000150 e9 9a 22 3b 73 21 52 bd 8f 3c 26 bd d2 9f 4d bd
       0.0024811572 -0.05130143 -0.040585097 -0.050201245
000160 3a 9b 98 bd 15 62 96 3d 38 fa 3f 3d 16 22 4a 3c
       -0.07451482 0.073429264 0.046869487 0.012337228
000170 84 a0 75 3b a5 a4 d5 3c b2 9e b4 3d 56 d4 2e 3e
       0.0037479708 0.026079485 0.08819331 0.17073187
000180 3a a2 51 3d b2 3f 74 3d 90 6e 71 3d 5a 77 3a 3e
       0.051180102 0.059631057 0.05894333 0.18209592
000190 80 e9 9d 3c b3 30 d3 bb ae 4d 8d bc 32 15 9a 3b
       0.01927638 -0.0064450144 -0.017248955 0.0047022337
0001a0 58 20 05 3d b3 79 68 3d b8 4e c2 3c 4b 36 28 3d
       0.03250155 0.056756686 0.023719177 0.041067403
0001b0 80 31 b8 3d 3c bd 9f 3d fa 4e 88 3d 6f 26 e7 3c
       0.089938164 0.077997655 0.066556886 0.028216569
0001c0 f9 b8 de 3d 2d 0b 39 3d 6b d4 ef 3d 71 ac 79 3d
       0.108751245 0.045176674 0.117104374 0.06095547
0001d0 76 c4 d2 3b 4f 9c 47 bc b4 91 e9 3d 94 9f 52 3d
       0.0064321114 -0.012183263 0.11404744 0.051421717
0001e0 91 e7 78 3c 4e 53 ee bb b1 8b 09 bd 47 a1 76 bd
       0.0151919285 -0.0072731143 -0.033580486 -0.0602124
0001f0 23 3e 8c 3d 82 4c 57 b9 85 15 4d bd 30 39 a0 3c
       0.06847789 -0.00020532499 -0.05006935 0.01955852
000200 d2 65 50 bc 1d ad 27 3d 03 a0 b0 3d 3b e6 d6 bc
       -0.012719588 0.040936578 0.0862427 -0.02623283
000210 6d 58 7e bd 70 7c 1f bd 6b 73 db 3b 2d 0e b8 3d
       -0.06209605 -0.038937032 0.0066971085 0.08987079
000220 38 69 88 3b d1 cc 4f bd 53 55 9e b9 d3 86 2c 3c
       0.0041629337 -0.050732438 -0.0003019968 0.0105301915
000230 2a ff e4 3d ef 7b 3f b9 ce ac fd 3b b7 04 02 3d
       0.11181481 -0.00018261348 0.007741547 0.031742778
000240 2d 26 1e 3d c9 d1 2d 3e ec 63 97 3d 33 56 cb 3c
       0.038610626 0.16974558 0.073921055 0.024821376
000250 13 17 96 bd bd ce 46 bd cf 71 0d bd ab fd 88 3d
       -0.0732862 -0.048537005 -0.034532364 0.06689008
000260 89 66 b4 3d 33 ac 18 3d 5b 68 7d bd 12 5f 8a bc
       0.088086195 0.037273597 -0.0618671 -0.016891036
000270 4c 32 e9 bc b5 ae 0c bd b7 07 ba bc 71 6a 9f bc
       -0.028466366 -0.0343463 -0.022708757 -0.019459935
000280 20 75 bc bd d6 db 68 bd 3a 6a 12 bd f0 59 6e bd
       -0.09202027 -0.056850277 -0.035745837 -0.05819124
000290 df 9a 23 bd 66 d9 48 bd be 00 3e bd 02 ab 3f bd
       -0.03994262 -0.049035452 -0.046387427 -0.046793945
0002a0 e1 80 2b bd 00 37 bb bd a4 8d 6e 3d ef f1 9d 3d
       -0.041870955 -0.0914135 0.058240548 0.07712161
0002b0 39 b1 2b 3d b3 58 bd 3d 8b d1 35 bd f7 14 f5 bc
       0.04191706 0.09245434 -0.04438929 -0.029917223
0002c0 92 98 86 bd e0 1c 5d 3d d9 67 85 3c 99 c7 bd 3a
       -0.06572069 0.053982615 0.01628487 0.001447904
0002d0 16 c1 b8 bc b4 53 f4 bb 37 58 b0 bb c3 bd 58 bc
       -0.022553008 -0.0074562673 -0.00538161 -0.0132288365
0002e0 a5 56 36 3d 1b 78 4d bd 0a d0 4c bd 5b 01 5c 3a
       0.044516224 -0.05016337 -0.05000309 0.0008392536
0002f0 4f 54 a4 3c 34 13 0e bd ee 3b 16 bd 58 70 cc bd
       0.020059733 -0.034686282 -0.036678247 -0.09982365
000300 d4 48 a8 bd 8a 87 26 bd 4a 48 80 3b 8d 77 35 be
       -0.08217016 -0.040656604 0.0039148675 -0.17721386
000310 23 bd 87 bd 4b 6d 3c bd 90 8a b0 bc 08 7d bc bd
       -0.06627872 -0.046002667 -0.021550447 -0.09203535
000320 bd 64 ab bc 4e d7 3b 3c 15 2b 26 bd 29 27 82 bc
       -0.02092206 0.011464907 -0.04056843 -0.015887814
000330 d4 cd 1c 3c c7 15 7f bd 5c 51 94 bd 94 d2 d4 bd
       0.009570558 -0.062276628 -0.072420806 -0.10391727
000340 30 81 11 bd 70 1a 96 3c c2 bc f6 bd b6 5b 1e bd
       -0.035523593 0.018323153 -0.120477214 -0.03866168
000350 0b 9b 51 bd 71 31 b0 bd 8b 4a 38 bd ee d7 d7 bc
       -0.05117325 -0.0860318 -0.044992965 -0.02634808
000360 56 93 8b bd 1f 84 8e bc 14 1a 8d bd 37 3f a9 bd
       -0.068152115 -0.017396985 -0.0688974 -0.082640104
000370 d2 0f d6 3a ad f3 19 3d 28 bf 81 3d 78 bf b0 bd
       0.0016331619 0.037585903 0.06335288 -0.0863027
000380 55 8a 93 bc af a9 fd 3d 23 00 d7 3d 6e 50 2d 3d
       -0.018010298 0.1238588 0.10498073 0.04231303
000390 db ea 41 bd 2d d5 b3 bd e4 a7 4e 3d 5e da 45 3d
       -0.047343116 -0.087808944 0.05045308 0.048303954
0003a0 b6 41 b8 bd d6 4f be bd f1 16 05 bc 3b 85 8c 3d
       -0.08996908 -0.09292571 -0.008123145 0.06861349
0003b0 ff 9c c2 bc 51 a2 97 bc c6 59 6a 3d c4 80 8d 3d
       -0.023756502 -0.018510016 0.05721452 0.06909326
0003c0 4e 55 8d bd 5c cd e9 3c 4d 0b 4b 3d 41 8d f7 3d
       -0.06901036 0.028540306 0.049571324 0.12087489
0003d0 4b ea 30 3d a8 ea 6e bd 4b b5 e5 bc 24 38 1b 3d
       0.04319219 -0.058329254 -0.028040549 0.037895337
0003e0 a6 aa 81 3d d0 25 18 3e 87 56 c5 bd b4 14 14 bd
       0.06331377 0.14858174 -0.096356444 -0.036152557
0003f0 9a 24 a5 bd be 43 a0 bd 2a e1 28 bd 6e 15 23 bd
       -0.08063622 -0.07825421 -0.04123036 -0.03981536

fc1.bias f4 [120]
000000 72 c1 fe 3d 91 8f 10 3d 93 d3 1e bd 15 52 5f 3d
       0.124392405 0.035293166 -0.03877599 0.05452164
000010 cf fa 90 3d 30 87 3e bc 04 71 83 3d c1 ef f4 3c
       0.07079088 -0.011628911 0.064180404 0.02989948
000020 7c b7 60 3c 92 15 b6 3d 8d 9f 0a be af 4c 2e 3d
       0.013715621 0.08890833 -0.13537426 0.0425536
000030 10 22 4c 3c 84 2a c4 bc 59 1f 7e bb e6 1b d4 3d
       0.012459293 -0.023946054 -0.003877601 0.10356884
000040 30 e7 87 bd 07 54 9c bc 16 ff 0b bc f8 49 00 3e
       -0.066358924 -0.019083036 -0.008544704 0.12528217
000050 41 7e fe bd 91 13 6f bc e4 b7 2a 3d 4f b0 c3 3d
       -0.12426425 -0.014592067 0.041679278 0.095551126
000060 e0 ad 46 3e fb bc 07 3d 53 a8 ba 3d 68 ab 73 3d
       0.19402266 0.03313921 0.091141365 0.059489638
000070 b4 7e 60 3b e8 7c 0a bd 8e 0d 9e bc 65 10 e0 ba
       0.0034255208 -0.033810526 -0.019293573 -0.001709473
000080 b1 a7 61 3e a2 62 12 be 49 27 bd bd 86 3f b1 bb
       0.22036625 -0.14295438 -0.09236009 -0.005409184
000090 e5 98 33 3e 12 85 d7 3b 1e 0a 08 3e b3 af b8 3d
       0.17538793 0.0065771425 0.1328511 0.09017887
0000a0 03 95 1d bc 5b 7c 1e bd c0 99 88 bc dd 94 4f 3d
       -0.009618047 -0.038692813 -0.016674876 0.050679076
0000b0 d6 c5 ac 3c 27 2f 1d be 51 97 2b bd 76 a3 10 bd
       0.02109043 -0.15350018 -0.041892353 -0.03531214
0000c0 24 5f 12 3d 94 bc 3a 3d a7 35 f6 3d e9 47 ae bd
       0.035735264 0.04559 0.12021952 -0.085098095
0000d0 0d 51 ba bc e5 b5 13 bd 25 17 3b bc 81 db 30 bd
       -0.022743726 -0.03606214 -0.011419092 -0.043178085
0000e0 8b b4 99 bd 83 67 8c bc 14 97 1b 3e f6 d4 11 3e
       -0.07505139 -0.017139202 0.1519435 0.14241394
0000f0 f7 2f 88 bd c2 86 4a bd 47 d3 58 3e 95 8f a8 3c
       -0.066497736 -0.04944492 0.21174346 0.020576278
000100 05 88 45 bd 6e e3 10 be 23 c6 ed 3c e8 31 04 3e
       -0.04822542 -0.14149258 0.029025143 0.12909663
000110 5d 0f 97 3d da 7c a1 3d 1c 3e 4d 3d fe eb 1f bd
       0.07375977 0.07885142 0.05010806 -0.03904342
000120 66 09 79 bc 89 e2 9a 3d 29 2c b5 bb f1 75 ca 3c
       -0.015199995 0.075627394 -0.005528946 0.024714442
000130 70 fc ea 3d b1 0d 43 bd bf 14 36 be df c1 3c bd
       0.1147393 -0.04762048 -0.17781352 -0.046083327
000140 83 76 86 bd b1 84 bd b9 5e 26 56 3b 86 97 b5 bc
       -0.06565573 -0.00036147752 0.0032676677 -0.022166979
000150 7e a4 21 bd b3 9c 9e 3c 61 02 a7 3d 61 42 33 bd
       -0.039463513 0.01936183 0.081547506 -0.043764476
000160 5a 2f 49 bc a1 47 59 be ba fd 3b 3b 35 5f 6a bd
       -0.012279356 -0.2121873 0.0028685168 -0.057219703
000170 51 62 af 3d ee be 80 3a 28 79 11 3e 57 90 09 3e
       0.08563674 0.0009822526 0.14206374 0.13433968
000180 00 50 96 3d 63 b8 99 bc e8 47 d8 3b c5 68 74 3e
       0.073394775 -0.01876468 0.006600369 0.23868091
000190 c9 38 2b 3d c2 ae 8a 3d e9 d7 a7 3d be 42 2d 3e
       0.0418022 0.06771614 0.081954785 0.16919991
0001a0 1a c6 94 bc ab 28 88 3d 0b c7 7b 3e e6 55 e9 3c
       -0.018160868 0.06648382 0.24587648 0.028483342
0001b0 06 e0 de 3d 41 61 71 3e 6f 91 6f bd 80 94 03 be
       0.10882573 0.23572256 -0.058488306 -0.12849617
0001c0 ff 79 0e 3d 4f 59 30 3d 2b 54 4c 3d 44 d0 35 bc
       0.034784313 0.04305392 0.049884956 -0.011097018
0001d0 53 44 f6 3b e2 32 76 bd 3b 3b 83 3d 26 93 86 3d
       0.007515469 -0.06010712 0.06407782 0.06571035

fc2.weight f4 [84, 120]
000000 8b 58 ee 3b 0c 30 3f 3c 66 d6 27 3e bc 7e f3 bc
       0.0072737387 0.01166917 0.1639038 -0.029723518
000010 54 a4 ff bd d4 e5 80 3c b5 86 7c 3d ad 64 8a 3d
       -0.12482515 0.01573459 0.061651904 0.06757484
000020 ee 0d 98 3d f2 b4 0c 3e 3e 26 f3 3d dd b6 8f 3d
       0.07424532 0.137409 0.118725285 0.070173
000030 e7 ce 26 3e f5 04 bc bd ea 68 35 bd 18 55 99 bd
       0.16289864 -0.09180633 -0.044289507 -0.074869335
000040 97 94 da bb 10 92 20 3d 91 fb 18 bd cc fd 0c be
       -0.0066705453 0.039201796 -0.037349287 -0.13768691
000050 5a 49 cc bc c1 77 05 bd a6 17 80 bd 4e 36 19 3d
       -0.02493732 -0.03258491 -0.062545106 0.037405305
000060 e1 c9 f9 3d 73 3e af bd 39 b9 0d 3e 40 66 4a bd
       0.121967085 -0.08556833 0.13840188 -0.04941392
000070 eb bd d5 bd dd 15 dd bd db 58 ee 3c e3 ee a2 3d
       -0.104366146 -0.10795186 0.029095104 0.0795572
000080 25 25 a1 bd b0 67 c8 bd 37 c7 19 be 19 5f aa bd
       -0.07868413 -0.09785402 -0.150174 -0.0831892
000090 0f 26 1c 3d 22 b2 64 bd 6b e2 3c 3e 65 f2 86 bd
       0.038122233 -0.055833943 0.18445747 -0.06589202
0000a0 b5 0a 29 bd 5a 77 12 be a4 bf bb bb c6 e2 1c 3d
       -0.041269977 -0.14303342 -0.0057296325 0.038302206
0000b0 57 a6 04 be 1b 42 2e bb 5f fe 15 bd 15 31 cd bd
       -0.12954079 -0.0026589695 -0.03661954 -0.10019127
0000c0 d9 66 70 bd c4 4f 95 bd 0a 12 8a bd 6b e4 d3 3d
       -0.058691833 -0.07290605 -0.06741722 0.10346302
0000d0 d5 60 f9 bc 58 44 c7 bc 4a 10 27 bd 83 fa c7 bd
       -0.03044168 -0.024324581 -0.04078702 -0.09764578
0000e0 5c 4e 15 3d e0 58 07 bd 49 f2 1a 3d 4f 60 d1 bd
       0.036451682 -0.033043742 0.037828717 -0.102234475
0000f0 7a 63 92 bc 49 43 48 bd 93 8f 35 3d ec c4 20 3d
       -0.0178697 -0.048892293 0.044326376 0.0392503
000100 6f a9 1c be a7 9e 94 3d 5c d5 f5 bc 8f 99 a3 bd
       -0.15299009 0.07256823 -0.030008964 -0.07988273
000110 e3 a6 5e bd b8 3f c5 bc 31 ef 4d bd 5f 9d 91 3d
       -0.054358374 -0.024078235 -0.05027694 0.07110094
000120 9f 56 74 3d 66 ac 49 bd d7 78 99 3d 37 00 25 3d
       0.05965292 -0.049236678 0.074937515 0.040283408
000130 31 e1 09 be 61 0f 34 bc 47 91 34 3e 98 1c 51 bd
       -0.1346481 -0.010989995 0.17633544 -0.05105266
000140 8c 1e 4f 3c 1c be 30 3c 57 9f 9c 3d 32 c3 70 3d
       0.01264156 0.010787513 0.07647579 0.058779903
000150 6b b0 1a bd 33 d7 0c bd 4e 8d 0b 3d 7d ea 07 bd
       -0.0377659 -0.034384917 0.034070306 -0.03318261
000160 e9 91 bc 3d 0e 2d 6d 3d 2d 2b 08 bd 4e a9 9c bd
       0.09207518 0.057904296 -0.0332443 -0.0764948
000170 a5 28 1f 3d ed 71 1d be bd d3 87 3c 37 b0 d3 3d
       0.03885712 -0.1537549 0.016580457 0.10336345
000180 8f 3b df 3d be 09 a3 3c 3b 7b 91 3d cf 54 be 3d
       0.10900032 0.019902106 0.071035825 0.0929352
000190 25 9f b4 3b 52 79 58 bd 4c cb 2a bd db a7 92 3d
       0.0055121356 -0.052850075 -0.041697785 0.07160922
0001a0 44 b9 d0 bd 3f ae ce bc 4f 5a 55 3d 36 16 fb 3c
       -0.101915866 -0.025229571 0.052088078 0.03065024
0001b0 c2 90 60 bd ce 4d 86 bd 57 3b 30 3e 35 3f f7 bd
       -0.05482555 -0.06557809 0.17210136 -0.12072603
0001c0 59 73 a7 bc 49 8b 00 be 85 34 0d 3d 6a 40 67 3d
       -0.020440744 -0.12553133 0.034473915 0.056457914
0001d0 ac a2 91 bc 62 e4 e9 3d 1b 9c 03 be 8a 3f e6 bd
       -0.017777763 0.11420514 -0.12852518 -0.11242588
0001e0 1d 03 a8 bc d6 df fe ba b8 07 af 3d e0 6e 43 3d
       -0.020509297 -0.001944537 0.08546394 0.04771316
0001f0 eb ad e5 bc d5 a5 0e bd 58 2c 82 bd ba 2c e5 bd
       -0.028037032 -0.03482612 -0.06356114 -0.111901715
000200 ee 7a de 3d f3 6c 07 3d 58 0c 84 3d c4 d9 d8 3c
       0.10863291 0.033062886 0.06447667 0.026471026
000210 b0 09 72 bd 00 82 1a 3d 8e 9d b1 bc e7 08 bc 3d
       -0.05909127 0.037721634 -0.021681573 0.091813855
000220 33 a4 d0 3d 96 39 22 3d 25 c2 1e 3d 50 19 a1 3c
       0.101875685 0.0396057 0.03875937 0.01966539
000230 81 f7 5c 3c 11 fa 76 bc d3 d5 8c 3d 46 18 8f 3c
       0.013486744 -0.015074269 0.06876721 0.01746763
000240 97 ed f1 bc ca 71 22 bc 02 5b 5d 3d c4 de 8b b9
       -0.029532237 -0.009914825 0.05404187 -0.0002667812
000250 d1 2b 2d 3b cc 03 7e 3d 49 34 99 3d 77 16 90 3d
       0.0026423822 0.06201534 0.07480676 0.07035535
000260 5f 42 86 3d 33 23 83 3d 7e fb a5 bd cc c4 0a 3d
       0.06555628 0.06403198 -0.08104609 0.033879086
000270 fa 91 42 bd 71 36 fc bc c5 22 2e bd 62 29 76 3d
       -0.047502495 -0.030787678 -0.042513628 0.06009806
000280 e7 05 02 3c a7 bf 90 3d 6e 51 06 3d 92 a7 64 3d
       0.007935978 0.07067805 0.0327925 0.05582387
000290 6a 9c 8f 3d da 00 a6 bd 08 af 95 bd 18 81 44 3d
       0.070122555 -0.08105631 -0.07308775 0.047974676
0002a0 82 b9 92 bd cd 9f 9e 3c 9c 8a b7 bd 6c 93 74 3d
       -0.07164289 0.019363308 -0.089619845 0.059710905
0002b0 c7 af 51 bd a9 38 0b 3d 0f e8 a3 bd 95 6f c7 bc
       -0.051193025 0.033989582 -0.08003246 -0.024345199
0002c0 b4 7b cf bc c0 95 8a 3a c2 57 60 3d 19 3c 48 bc
       -0.025327541 0.0010573193 0.054771192 -0.01222136
0002d0 ba c4 cc bc 0e 71 2f bb 06 ab 79 ba 10 d9 a4 3b
       -0.02499615 -0.0026770267 -0.00095240807 0.0050307587
0002e0 56 68 45 bc fc 0c d0 3c 2d fb ab bd de a3 9b bc
       -0.012048801 0.025396816 -0.08397517 -0.018999036
0002f0 5a 2d 25 3d 2b 03 8d bd 6f 8a de 3c ff fa cc bc
       0.040326454 -0.0688537 0.02716562 -0.025022028
000300 e2 72 8a bc 2c 87 df 3b 7d da a4 3c 82 f5 cd bd
       -0.016900484 0.0068215337 0.020123715 -0.100565925
000310 3d 05 9b bc 85 c9 80 bb 22 5c 16 3d 3a 1a 70 3d
       -0.018923396 -0.003930273 0.03670896 0.05861876
000320 57 0d 63 bb b7 0c 8a bd 1e 1c 2f 3d ab 12 92 bb
       -0.0034645402 -0.067407064 0.042751424 -0.004457792
000330 b7 bd b1 bb bc 24 fb bd e1 3d ab 3d 96 70 20 3d
       -0.005424227 -0.12262866 0.08361412 0.03916987
000340 ca 54 38 3c 70 0a 06 bd 7a 7d 90 bc 07 35 b4 3d
       0.011250684 -0.032724798 -0.017637957 0.08799177
000350 19 f9 6c bc 46 86 66 3d 87 33 fc 3c 14 5f 53 3d
       -0.014463686 0.056280397 0.030786289 0.051604345
000360 30 64 a4 3d 79 de 6c bd cc f1 4a 3c 9c ae 02 be
       0.08026922 -0.057829354 0.01238675 -0.1276192
000370 fb 1b 86 3d 6f be a5 bb 9d 96 b9 bc 24 c9 90 3c
       0.065483056 -0.005058102 -0.022654826 0.017674036
000380 8b d6 9b bd ea 21 08 3c f8 42 8e bd 58 36 c6 3d
       -0.0760928 0.008308867 -0.06946367 0.09678334
000390 53 c5 ee bd 0a 08 91 3c bd 4d e1 3d 3d 97 8b bd
       -0.1165873 0.017704029 0.110011555 -0.06815956
0003a0 0a 3a 26 3c ef bf 69 3b 18 2e 08 3d 3f 62 46 bc
       0.0101456735 0.003566738 0.033247083 -0.012108385
0003b0 91 d4 af 3d ec 63 91 bd 6a c4 3d 3d 47 b5 59 bd
       0.08585466 -0.07099137 0.046329893 -0.053151395
0003c0 62 87 48 3c a4 3a c3 3d 8d 07 04 3d 3d ad 7f bd
       0.012239309 0.09532669 0.032233763 -0.062421072
0003d0 a4 d3 12 3d 69 23 9a 3d 4f 90 8e 3d 35 96 71 ba
       0.035846367 0.07526285 0.069611184 -0.0009215803
0003e0 8e 96 37 3d 13 1d 3c bd 2f 5f a1 bc db 85 42 3d
       0.044821315 -0.045926165 -0.019698707 0.047490936
0003f0 e0 a0 a3 bd c9 c8 87 3d 99 3b 92 3d 32 39 95 3d
       -0.07989669 0.066300936 0.071402736 0.072863

fc2.bias f4 [84]
000000 cc fe 6f 3c f2 d2 2a bd a7 17 fe bb fc 90 09 3e
       0.014648151 -0.04170508 -0.0077542844 0.13434213
000010 2e 5c 85 3e e5 2e f8 3e 7d 0e d2 bd f0 18 67 3e
       0.2604689 0.48473278 -0.1025667 0.22568107
000020 84 8d 30 bd 4d f1 68 bd 8e df 0d be 61 bc 6f bb
       -0.04310371 -0.056870747 -0.1385481 -0.0036580788
000030 02 6a 13 3e 2e dc 84 3e 38 e3 37 3d cc 35 ec 3d
       0.14395908 0.25949234 0.044894427 0.115336984
000040 c6 e0 1e 3e 3a 9a f1 3c ed 38 57 3d a6 c8 5e 3d
       0.15515432 0.029492486 0.052544523 0.054390572
000050 db 85 a6 3d 47 9b 8e 3c 28 d9 08 bd 8a 6a 30 3d
       0.08131 0.017408026 -0.03341022 0.043070354
000060 80 98 f6 bd 79 18 c0 bd 9d e8 0c be a1 b3 a3 3c
       -0.12040806 -0.09379668 -0.1376061 0.019983115
000070 25 c1 21 3e c9 0b f0 bc ca d7 ae ba 0c 52 db 3d
       0.15796335 -0.029302495 -0.0013339457 0.107090086
000080 71 54 74 bc 02 b5 e4 bc 24 00 14 3e f1 6d 71 bd
       -0.0149127105 -0.027918343 0.14453179 -0.05894274
000090 3f 8b 9f 3e bd ea 20 3d 85 99 e9 3c 73 38 31 bc
       0.31160924 0.039286364 0.028515587 -0.010816681
0000a0 6d 13 31 3e 91 c3 30 3d b4 32 8b 3d 85 f8 96 3c
       0.17292567 0.043155257 0.0679678 0.01842905
0000b0 f3 ec b7 bd 21 a4 a5 bd e3 c3 65 bd 4c 79 2e be
       -0.08980741 -0.08087946 -0.056095015 -0.17038459
0000c0 4e 8e 91 3e eb 13 da 3c cd e2 b4 bd 01 a4 aa 3e
       0.28428882 0.026620826 -0.08832321 0.3332825
0000d0 14 af d2 bd 70 09 3c bd 1d af 0f be 47 38 65 3e
       -0.102873 -0.045907438 -0.14031644 0.2238475
0000e0 46 0b d6 3c c4 46 17 3d fe 65 91 3e cc cb f0 3d
       0.026128422 0.03693272 0.28398126 0.11757621
0000f0 27 1a 6e 3d a2 8e 8c bd a7 78 c2 3e 62 17 36 3e
       0.05813041 -0.068631425 0.37982675 0.17782357
000100 94 cc 38 bc 06 73 54 be 53 ba f6 bd 28 2a 3f 3e
       -0.011279244 -0.20747003 -0.12047257 0.18668425
000110 0d 90 5b 3e 4b a1 83 bd ac 2c 19 3e 49 0b 82 3d
       0.2144167 -0.064272486 0.14958447 0.06349809
000120 93 fc 8c bd 57 40 20 3d 3c 9d c1 bd bc d2 df 3c
       -0.06884112 0.03912386 -0.09453818 0.027322166
000130 a4 0a 71 bd 37 d4 00 bd 50 22 bc 3d b6 16 15 3e
       -0.05884804 -0.031452384 0.09186232 0.14559445
000140 da 26 80 3e 8a 39 34 3e 6c 6d fa 3c 9d c6 93 3e
       0.2502964 0.17600074 0.030569755 0.28862467

fc3.weight f4 [10, 84]
000000 64 4c 92 3e 23 05 97 3d e9 d2 d8 3c 0e 23 4f 3e
       0.28573906 0.073740266 0.026467757 0.20228216
000010 9d 29 5a bd d8 ed c5 bd dd f3 02 3e 24 f7 7f bd
       -0.05326234 -0.09664506 0.12788339 -0.06249155
000020 60 f6 8f 3d 6f 79 b0 bd 93 83 79 bd 44 8b c0 bd
       0.07029414 -0.086169116 -0.060916495 -0.09401563
000030 76 88 34 3e ec be 35 be 6e 2d 1d be d1 39 13 be
       0.1763018 -0.17748612 -0.15349361 -0.14377524
000040 fc 00 ab 3d 04 37 58 bd 02 2e 93 3d f0 f8 1a 3a
       0.08349797 -0.052786842 0.0718651 0.00059117284
000050 97 95 9a 3d 5e 29 75 3e d4 a7 f6 bc a5 2e 13 be
       0.07548063 0.23941562 -0.030109324 -0.14373262
000060 67 b4 ae 3d a8 a2 d7 bc ca 20 b6 3c ea 8c 82 bb
       0.08530503 -0.026322678 0.022232432 -0.0039840834
000070 33 77 3a 3e d0 e6 09 be 60 87 73 bd 55 81 04 bd
       0.18209533 -0.13466954 -0.059455276 -0.032349903
000080 72 4d d0 3c 2f bf 2d bd ef cb 96 bd 1c 30 80 3b
       0.025427554 -0.042418655 -0.07363116 0.003911985
000090 e3 9d ad 3e 9c 01 b9 3d 9e a9 be 3c 85 eb 5f 3c
       0.3390952 0.0903351 0.02327424 0.013666992
0000a0 d1 0c 06 3e d2 d4 6f bd 12 4e 8c 3d c4 90 c9 3e
       0.13090827 -0.05855257 0.06850828 0.3936826
0000b0 8e 3d ed bc 8b 62 eb 3d ff 00 b0 bd 7b 0f b6 bb
       -0.028960016 0.11493405 -0.0859394 -0.0055560446
0000c0 65 26 ae be 2f fd d8 3d 60 2b ba 3d 48 a9 53 3d
       -0.34013668 0.10595166 0.090903044 0.05167511
0000d0 6f 21 a2 bd 5c a0 4d 3d 8b fe ad bd 5b d6 81 bc
       -0.07916533 0.05020176 -0.08495816 -0.015849283
0000e0 2f 8e a2 3c 32 85 2a 3e 12 3a 85 3d f0 1c 64 3e
       0.019843189 0.16652372 0.06505217 0.22276664
0000f0 3b 19 93 bd d6 92 a8 3d bc 1c 4f bd 61 30 8f bd
       -0.07182547 0.08231132 -0.050564513 -0.069916494
000100 a3 44 9a 3d dd 83 3e 3e ab 77 42 3e 52 03 99 3d
       0.07532623 0.1860499 0.18990962 0.074713364
000110 f9 07 6c be ae bc 09 3d 30 c1 0a be ea d4 64 3e
       -0.23049916 0.033627205 -0.13550258 0.22346845
000120 e3 da 1e bd 20 3c 99 3d b3 bc a9 bd 39 1b 00 3c
       -0.038782965 0.07482171 -0.08287945 0.00781899
000130 da e8 d9 bd d0 24 a8 3d 5f 3f 9b bd a4 d0 8f 3d
       -0.10640116 0.082101464 -0.075804465 0.07022217
000140 c6 9b cf be 95 60 c8 bc 54 70 5a be 7e df fa bd
       -0.40548533 -0.024460116 -0.21331912 -0.12249659
000150 1e f6 99 bd 8f 64 28 bb 7f 8f fd 3c e5 04 20 3e
       -0.07517646 -0.0025694703 0.030952213 0.15626867
000160 53 8e 53 be d0 d9 c4 bc a2 90 62 3e 4b 07 4f be
       -0.20659761 -0.024029642 0.22125486 -0.20217626
000170 6c a3 33 3e 02 3e d3 3d 6e 44 a8 3d 8e 9b a0 bc
       0.17542809 0.103145614 0.08216177 -0.019605424
000180 93 d7 c9 3d 9d 6a d4 bc 57 9d 36 be e2 fd 0a 3e
       0.09855571 -0.025929743 -0.17833458 0.13573411
000190 97 e1 b5 bd b8 58 0b be 42 2a 33 bb e7 65 c4 bd
       -0.088809185 -0.13608062 -0.002733842 -0.09589749
0001a0 4d f5 2b 3e 68 7f 5a bd 81 75 91 3d 34 4d 73 3e
       0.16792794 -0.05334416 0.0710249 0.2375992
0001b0 a4 71 3b 3e b9 1b b9 bc 23 5b c8 3c 38 d8 f4 bc
       0.18305069 -0.022596227 0.02445752 -0.029888257
0001c0 81 11 62 bd 11 d0 d4 3d 2a fb bc bd 31 09 23 bc
       -0.055192474 0.10391248 -0.09227593 -0.009950922
0001d0 d6 7e cd bd 95 23 0e 3d 32 67 a9 3d 66 7f 21 3e
       -0.10033958 0.034701902 0.08271636 0.15771255
0001e0 5a 26 44 bd b7 ca c9 bd 78 ed 66 3d 01 0b 98 3d
       -0.047888137 -0.09853118 0.05637881 0.07423974
0001f0 03 a0 8e be 16 67 42 3e d2 20 88 3c 54 11 f9 bd
       -0.27856454 0.18984637 0.016617212 -0.12161508
000200 3e a6 8b 3e 28 30 c6 bd ec 16 32 3c fd 7c ae 3e
       0.2727527 -0.09677154 0.010869723 0.34079733
000210 47 66 48 be 3b 73 c9 bd 6e d3 fa bb b5 c8 b3 3b
       -0.19570266 -0.098364316 -0.007654599 0.0054865726
000220 df 96 a1 3b bc fd fe 3c 2e da 36 3d 2a 61 ed bd
       0.0049313153 0.03112685 0.044641666 -0.11590798
000230 39 7d 0b 3d 53 3a c2 bc 22 1d 9d be 4c ed c8 bd
       0.03405497 -0.023709452 -0.3068629 -0.09810886
000240 ec ca 2b 3d 1e 0b b5 bd 85 81 c5 be 7d 8d ba 3d
       0.04194157 -0.08840011 -0.38575378 0.09109018
000250 c1 93 bd bc 83 f8 b8 3e 9e 14 40 3e d6 dc 45 3e
       -0.023141744 0.361271 0.18757865 0.19322523
000260 b1 4c 1d 3e 3d 70 4f 3e 73 d5 1c be fd 0e a3 3e
       0.15361287 0.2025766 -0.153158 0.31847373
000270 5b 98 37 be af 75 15 bd d4 c6 8d bd 8d a5 d6 3d
       -0.17929213 -0.036489185 -0.06922689 0.10480795
000280 5d 42 ad 3b b6 60 20 be cc be 46 bd eb c9 7e 3d
       0.005287452 -0.15661892 -0.0485218 0.062204283
000290 92 57 2e 3d 41 27 07 be db 50 b6 bd 72 ef b0 be
       0.042563982 -0.13198568 -0.08902141 -0.34557682
0002a0 c8 19 8b 3e b9 f9 d5 bd 62 93 07 bd 2e e1 3a be
       0.27168107 -0.104480214 -0.03309954 -0.18249962
0002b0 61 75 aa 3d 19 6f 72 3e 0a 0f bc 3d 12 ef 29 bd
       0.083231695 0.23675193 0.09182556 -0.04148776
0002c0 1d d6 e4 3b ae b5 49 bd d2 00 83 3c c3 89 e2 3c
       0.006983532 -0.04924553 0.015991602 0.02765358
0002d0 f0 1e f6 3d ea 51 90 3d 75 53 1e 3e 60 aa a9 3c
       0.120176196 0.07046874 0.15461524 0.020711124
0002e0 62 cf e1 3d c3 ea a7 3d cc fe 84 be a4 aa 0c be
       0.11025883 0.08199074 -0.25975645 -0.13736969
0002f0 aa f2 3c bd 23 8d 4c bc 44 ca d3 3c cc 0f 96 be
       -0.04612986 -0.0124848215 0.025853284 -0.29308927
000300 57 67 33 3d 29 fe 84 bd 41 e2 11 bc 22 7f 26 be
       0.043799724 -0.0649379 -0.008904041 -0.16259435
000310 1c c6 1a 3e 05 c1 20 be c6 58 4b 3d 45 76 29 3e
       0.15114635 -0.15698631 0.049645208 0.16549022
000320 51 e9 0d bd 26 15 6e bd c5 76 fa bb 3a e6 fb 39
       -0.034646336 -0.058125637 -0.007643553 0.00048045983
000330 75 2b e4 3d fb ed fa 3c 41 3c b9 bd d1 f3 22 be
       0.11141101 0.030631056 -0.09044696 -0.15913321
000340 15 1d 82 3e 4c 49 99 bd d5 7c 48 be ce 70 b9 3d
       0.25412813 -0.074846834 -0.1957887 0.09054719
000350 83 d0 ca 3d b7 12 73 3d 19 c8 91 3a 3c c2 5e bd
       0.09903052 0.05934402 0.0011122256 -0.054384455
000360 a3 b2 9f 3b 00 5c 96 bd 9f 7b d4 bd d4 94 51 3e
       0.00487359 -0.07341766 -0.10375141 0.2046693
000370 38 bf 0b bd b7 b6 b1 bc 7f 96 ce 3d b9 38 36 be
       -0.034117907 -0.02169357 0.100872986 -0.17795075
000380 77 ea 0e 3d 97 99 b9 3e c8 28 33 3e 03 1d 08 3d
       0.03489157 0.36249992 0.17496026 0.033230793
000390 3f 39 94 bd e1 a2 aa bd 09 16 94 3e 2a 24 74 be
       -0.07237481 -0.08331848 0.2892306 -0.2384192
0003a0 2b f5 95 3d 36 6a d9 bc 0a d0 11 be ef 73 13 be
       0.07322153 -0.026539903 -0.14239517 -0.14399694
0003b0 ca 40 14 bd 8d ec d2 3d 84 ee 9c ba 37 16 c4 bd
       -0.0361946 0.10299025 -0.0011972939 -0.0957455
0003c0 f0 f6 38 be f1 54 83 bd d7 15 1e 3d f9 29 ae 3d
       -0.18062949 -0.06412686 0.038595047 0.085040994
0003d0 3e 8d 55 3d b5 3f 50 3e 22 d1 d8 3d 4c 09 93 bc
       0.052136652 0.20336802 0.10586764 -0.017948769
0003e0 3c 3d af 3e 41 7a 96 3e 99 3a bb bd e6 7b 0e 3e
       0.34226406 0.29390147 -0.09142036 0.13914451
0003f0 ab 88 a4 3d 6b 54 26 3e 49 22 63 3d e5 24 9a bd
       0.0803388 0.1624314 0.05545262 -0.07526568

fc3.bias f4 [10]
000000 f0 a3 54 be 47 c8 01 bf 5b f4 02 3e 4a a1 97 3e
       -0.20765662 -0.50696224 0.12788527 0.2961524
000010 91 de 26 3f a5 89 60 be 24 00 2d 3e a2 34 68 be
       0.6518336 -0.21927507 0.16894585 -0.22676328
000020 03 20 a9 3e 61 01 8e be
       0.33032236 -0.27735427
